model.pth (torch, 35392 bytes, 4 tensors)

fc1.weight f4 [64, 128]
0	0x3aef2b51	0.0018247162
1	0xbc4464d7	-0.011986933
2	0xbd0c850a	-0.034306563
3	0xbbc1049f	-0.0058904435
4	0xbc18e1a7	-0.009331143
5	0xbd4b78cf	-0.04967576
6	0xbd4f7032	-0.050644107
7	0xbc83a329	-0.016069012
8	0x3b943cd4	0.004523853
9	0xbd9be4ef	-0.07612025
10	0x3d834cd4	0.06411138
11	0x3c33dd4a	0.010978052
12	0x3d02ad52	0.031903572
13	0x3d3123fc	0.043247208
14	0x3bc20d85	0.005922022
15	0xbda73684	-0.08164695
16	0xbd0a51a2	-0.033769257
17	0x3d04f038	0.032455653
18	0x3d6f2f15	0.05839451
19	0xbd82bbc9	-0.063834734
20	0x3c822422	0.01588637
21	0xbd72f47b	-0.059315186
22	0xbda6dd12	-0.081476346
23	0xbd0253c6	-0.031818174
24	0x3d35952d	0.04433172
25	0xbd9edec2	-0.077573314
26	0x3dad085a	0.084488586
27	0xbd0b72ba	-0.03404496
28	0x3c6dc6b6	0.014512708
29	0xbd9d8255	-0.076908745
30	0xbd999b99	-0.07500381
31	0x3da7b1e1	0.081882246
32	0xbd417a1a	-0.047235586
33	0x3da7dc7e	0.081963524
34	0xbd6e3122	-0.058152325
35	0x3d406342	0.04696966
36	0x3c190a7d	0.0093408795
37	0x3d744e12	0.059644766
38	0x3d0938e3	0.033501517
39	0xbd5e4b69	-0.054271135
40	0xbbd15e6e	-0.0063894307
41	0x3da87293	0.08224978
42	0x3c7f5f83	0.015586737
43	0xbc60380e	-0.0136852395
44	0x3db16b64	0.08663061
45	0xbbd3403c	-0.0064468663
46	0xbd0334e9	-0.03203288
47	0x3c5d3c29	0.013503113
48	0x3cbb3106	0.022850525
49	0x3d9434e8	0.072366536
50	0xb9d77f0e	-0.0004110266
51	0x3d328bb4	0.043590263
52	0xbbe3ad38	-0.0069481395
53	0xbd83432c	-0.064092964
54	0x3bc95d52	0.006145158
55	0xbd3a20db	-0.04544149
56	0x3ccabc72	0.02474806
57	0x3d91b773	0.07115068
58	0xbd0f5ceb	-0.035000723
59	0x3d64e305	0.055880565
60	0x3d4ed3de	0.05049502
61	0x3d81ec9d	0.063439585
62	0x3d98eb6d	0.07466779
63	0x3c05812a	0.008148471
64	0x3cc8a4db	0.024492672
65	0x3c11d6c0	0.008901298
66	0x3dac88d7	0.08424538
67	0x3ce79068	0.0282671
68	0x3d7b9957	0.061425533
69	0xbd592070	-0.05300945
70	0x3d115519	0.035481546
71	0x3d556faa	0.052108444
72	0xbd0f7b50	-0.03502971
73	0xbd8a963d	-0.06766937
74	0x3d12171c	0.03566657
75	0x3d67cc1a	0.05659113
76	0xbd83f57b	-0.06443306
77	0xbdb41019	-0.08792133
78	0x3d100a20	0.035165906
79	0xbd105657	-0.03523859
80	0x3d55e3b5	0.05221911
81	0xbd9ed2c0	-0.07755041
82	0x3cd403e7	0.025880767
83	0x3bb68066	0.0055695055
84	0x3d1bdd9d	0.038053144
85	0xbca0e536	-0.019640546
86	0x3d35c400	0.044376373
87	0xbdace8b4	-0.08442822
88	0xbca2cc36	-0.019872766
89	0x3dae329a	0.08505745
90	0x3d2d3fba	0.042297103
91	0x3d9a700c	0.075409025
92	0x3c19be18	0.009383701
93	0xbd808df8	-0.062770784
94	0xbd81d38e	-0.06339179
95	0xbda75430	-0.08170354
96	0x3c2cbae1	0.010542602
97	0x3d1d9824	0.03847517
98	0x3d8c1edc	0.068418235
99	0x3b841770	0.0040311143
100	0xbd80af96	-0.0628349
101	0xbd4e1c93	-0.05032022
102	0x3d997ad4	0.07494131
103	0xbc85b310	-0.016320735
104	0x3da517c4	0.080611736
105	0x3bd77298	0.00657494
106	0x3d3b0dd3	0.04566748
107	0x3db35024	0.0875552
108	0x3dae23a8	0.08502895
109	0xbd36fdbf	-0.044675585
110	0x3d483bb7	0.048885074
111	0x3d6eb143	0.05827452
112	0xbda6294a	-0.08113344
113	0xbc179a4e	-0.009253098
114	0xbd3cf07d	-0.046127785
115	0x3d3b3f85	0.045714874
116	0xbd58dba6	-0.052943848
117	0x3d598e31	0.05311412
118	0xbc78136d	-0.01514135
119	0xbd27a5fd	-0.040929783
120	0x3d2e7266	0.042589568
121	0x3d0dbd81	0.034604553
122	0x3d98d310	0.07462132
123	0x3c247791	0.0100382725
124	0xbc6eb0da	-0.014568532
125	0xbc8340a2	-0.01602203
126	0xbbe11884	-0.0068693776
127	0xbd746adf	-0.059672233
128	0x3ab6b71d	0.001394007
129	0xbd715615	-0.058919985
130	0xbd1b546d	-0.03792231
131	0xbcb09b86	-0.021558534
132	0xbd02aedb	-0.031905036
133	0xbd1bbcd3	-0.038021874
134	0x3ca48d2e	0.020086851
135	0xbcded544	-0.027201302
136	0x3d5c47cf	0.05377942
137	0x3d2ca955	0.042153675
138	0xbd465647	-0.048422124
139	0x3c922b84	0.017843015
140	0xbd8a8c5b	-0.06765052
141	0x3afb5d31	0.0019177553
142	0xbd913010	-0.07089245
143	0xbd56f8dc	-0.052483425
144	0x3ba61e76	0.005069549
145	0x3d2b1ca5	0.041775364
146	0x3daa444b	0.08313807
147	0x3cfbf7d9	0.030757831
148	0xbd29b049	-0.041427884
149	0xbd975034	-0.073883444
150	0xbd6dae87	-0.05802777
151	0x3d46240d	0.048374224
152	0x3d0aadd8	0.033857197
153	0xbd2cf35c	-0.042224273
154	0xbd85ed3e	-0.06539391
155	0x3d289364	0.041156188
156	0x3d03271f	0.03201973
157	0x3ce3a41e	0.027788218
158	0x3d5dd931	0.054162208
159	0x3ce8300f	0.028343229
160	0x3d8b957f	0.068156235
161	0x3d5f2ab7	0.054484095
162	0xbd80bb7d	-0.062857606
163	0x3b3e7330	0.0029060356
164	0xbdae7183	-0.085177444
165	0xbd8cca6a	-0.06874545
166	0x3c61a470	0.013772115
167	0xbd318656	-0.043341003
168	0xbb804b41	-0.003915221
169	0xbcebdc88	-0.028791681
170	0xbd374291	-0.044741217
171	0xbd11bc8b	-0.0355802
172	0x3d88b388	0.06674868
173	0x3da131bd	0.07870815
174	0xbd0a76db	-0.033804756
175	0x3d8d5e9c	0.06902811
176	0xbd838f7b	-0.06423851
177	0xbd9e0ce4	-0.077173024
178	0x3ceec9fa	0.029149044
179	0x3d8d28e3	0.06892564
180	0xbd530f8b	-0.051528495
181	0xbd0f0bab	-0.034923237
182	0xbc8d4bce	-0.01724806
183	0x3d56c979	0.052438233
184	0x3b243e83	0.0025061674
185	0xbc74446a	-0.014908889
186	0x3d57500e	0.05256658
187	0x3d074fbc	0.033035025
188	0xbdb4a489	-0.08820445
189	0xbcab782c	-0.020931326
190	0xbd8142ee	-0.06311594
191	0xbd2cbe04	-0.0421734
192	0x3c617641	0.013761104
193	0x3d484b51	0.048899952
194	0x3cf27a90	0.029599458
195	0xbcd94965	-0.026524255
196	0x3c07b1d0	0.00828214
197	0xbd7bab84	-0.061442867
198	0xbd8d1678	-0.06889051
199	0xbd35a667	-0.044348147
200	0x3bbd1515	0.0057703354
201	0xbc90abde	-0.017660078
202	0xbd0296ed	-0.031882215
203	0x3c83e2b1	0.016099306
204	0xbc3a43b3	-0.01136868
205	0xbd2ab41b	-0.04167567
206	0xbc11159f	-0.0088552525
207	0x3d80ac78	0.06282896
208	0xbd9ea689	-0.07746608
209	0xbda977a7	-0.08274775
210	0xbd17735c	-0.03697525
211	0x3d8e8b14	0.06960121
212	0x3d2b1739	0.041770194
213	0x3d94eaf1	0.07271374
214	0x3d9fc08f	0.078003995
215	0xbd25b8c3	-0.040459406
216	0x3d09ec35	0.03367253
217	0xbd8a0468	-0.06739122
218	0xbd890eeb	-0.066922985
219	0xbd4845f8	-0.048894852
220	0xbd7b373d	-0.061331976
221	0x3c4b80e3	0.012420866
222	0x3d2a7cd7	0.041622963
223	0x3cb8707b	0.022514572
224	0x3cd038ef	0.025417773
225	0xbdb1e4a7	-0.0868619
226	0x3d5d51f8	0.05403325
227	0x3ce94a70	0.028477877
228	0x3d10e65e	0.035375945
229	0x3d1cdf58	0.038298935
230	0x3c6e3971	0.014540062
231	0xbd338abf	-0.04383349
232	0xbda89afe	-0.082326874
233	0x3cdcbca3	0.026945418
234	0x3d9ee205	0.077579536
235	0x3cabc9b6	0.020970207
236	0x3adb42d8	0.0016728295
237	0x3da5d69a	0.080975726
238	0xbdab4634	-0.083629996
239	0x3c7549de	0.014971225
240	0xbd60891b	-0.054818254
241	0x3cbc442d	0.022981727
242	0x3d53b652	0.051687546
243	0xbd5a305d	-0.05326878
244	0x3d30a8a3	0.043129575
245	0xbcd3eacd	-0.025868798
246	0xbc64115d	-0.013920155
247	0x3d1e734d	0.03868418
248	0x3cf1be78	0.029509768
249	0xbc559dbd	-0.013038096
250	0x3d9c19a0	0.07622075
251	0x3dac336e	0.08408247
252	0xbd870788	-0.06593233
253	0x3d02aca8	0.03190294
254	0x3da01708	0.07816893
255	0x3d515882	0.0511098

fc1.bias f4 [64]
0	0x3d894a6c	0.06703648
1	0x3b3b0a17	0.002853995
2	0xbcc239f5	-0.023709277
3	0x3c8702f0	0.016480893
4	0x3c918c4e	0.017767098
5	0xbd0f9ad3	-0.03505976
6	0x3d4b5292	0.049639292
7	0x3d9e1ce0	0.07720351
8	0xbd474cb1	-0.048657123
9	0x3da6b5b2	0.081401244
10	0xbdac4c0b	-0.084129415
11	0x3c631ae5	0.013861393
12	0xbd33513a	-0.043778636
13	0x3d098429	0.033573303
14	0x3d8e9f4e	0.06963979
15	0x3d82b28f	0.063817136
16	0x3d2c85ae	0.042119674
17	0x3ca7d42f	0.02048692
18	0x3d9971c5	0.07492403
19	0xbc16529b	-0.009174968
20	0xbda1f600	-0.07908249
21	0xbcc9614c	-0.024582528
22	0xbbfdcb72	-0.0077452
23	0xbd7bc4d1	-0.061466996
24	0xbd83a4d5	-0.064279236
25	0x3db02ff4	0.08602896
26	0xbda35dbf	-0.07976865
27	0x3d8edab3	0.06975307
28	0xbd39e61c	-0.045385465
29	0xbd53f576	-0.05174776
30	0xbda4b312	-0.080419675
31	0xbd211727	-0.03932872
32	0x3d7ea8d6	0.062172733
33	0x3dacf476	0.08445065
34	0xbd053992	-0.032525606
35	0xbd496475	-0.04916807
36	0x3a826fb4	0.0009951503
37	0x3db23238	0.08700985
38	0x3d1eb06f	0.03874248
39	0x3d16f007	0.03685
40	0xbb81bd29	-0.003959317
41	0x3cb5678c	0.022144102
42	0x3d7edd51	0.062222783
43	0x3dae7a2b	0.085193954
44	0x3db2e0b1	0.08734263
45	0x3cff0194	0.031128682
46	0xbceb0a0f	-0.02869132
47	0x3d3d8205	0.046266574
48	0xbd2d0e9a	-0.042250253
49	0x3d335b92	0.0437885
50	0x3b8b0e68	0.0042436607
51	0x3d7c6be4	0.06162633
52	0x3c3bef31	0.011470602
53	0xbb9eed6c	-0.0048500802
54	0xbda5c8ad	-0.080949165
55	0x3cf85d79	0.030318009
56	0x3d9b05c1	0.07569457
57	0x3ca142f8	0.019685254
58	0xbd05dde5	-0.03268232
59	0x3cb2972e	0.021800604
60	0xbca723c8	-0.020402804
61	0xbcd22838	-0.025653943
62	0x3cd4bf8d	0.025970245
63	0x3c8fa2a2	0.017533604

fc2.weight f4 [2, 64]
0	0x3c7c9bb0	0.015417978
1	0xbd512068	-0.051056296
2	0xbd161d14	-0.036648825
3	0x3dcf1dba	0.10113092
4	0x3dc70bd4	0.09719053
5	0xbb17b700	-0.0023149848
6	0xbd19a214	-0.037508085
7	0xbdd1daf6	-0.102468416
8	0xbde8e5b6	-0.11371939
9	0xbd47e8ac	-0.048805878
10	0xbd5d71d4	-0.054063633
11	0xbda7b524	-0.08188847
12	0x3d4e4b74	0.050364926
13	0x3d4ee1f0	0.05050844
14	0x3df31730	0.11869657
15	0xbd024b04	-0.03180982
16	0x3d57e2f8	0.05270669
17	0x3d01cd5c	0.031689987
18	0x3dc8a296	0.09796636
19	0x3c1e8300	0.0096747875
20	0x3b50bd40	0.0031851083
21	0xbdfa8334	-0.12232056
22	0xbcf483f0	-0.029848069
23	0x3d701b50	0.058619797
24	0x3d7eb4d8	0.062184185
25	0xbdd6618e	-0.10467826
26	0x3dc16740	0.094435215
27	0xbdc38578	-0.095469415
28	0xbd54bb94	-0.0519367
29	0x3de11112	0.10989584
30	0x3df6f986	0.120593116
31	0xbd9d5874	-0.07682887
32	0xbda25d78	-0.07927984
33	0xbdc1ecc0	-0.094689846
34	0xbd4db358	-0.050219864
35	0xbd88d964	-0.06682089
36	0xbc337250	-0.010952547
37	0x3d61c29c	0.055117235
38	0xbde1fea8	-0.110349
39	0xbd8c13e4	-0.06839731
40	0xbd4ec844	-0.050483957
41	0xbd87625c	-0.066105574
42	0x3d853834	0.065048605
43	0x3d8cd654	0.06876817
44	0xbdec5398	-0.11539382
45	0xbd429124	-0.047501698
46	0xbc8efa98	-0.017453477
47	0x3ddae61e	0.106884226
48	0x3dc24d92	0.094874516
49	0xbd4a6fe4	-0.049423113
50	0x3dbb3e92	0.09142794
51	0x3d142254	0.03616555
52	0x3d664630	0.05621928
53	0xbd8ec652	-0.0697142
54	0xbda2ed96	-0.07955472
55	0xbd9ae102	-0.07562448
56	0x3db7f4f0	0.08982265
57	0xbcae00e8	-0.021240667
58	0xbd505408	-0.05086139
59	0xbcee39d8	-0.029080316
60	0x3d076960	0.033059478
61	0x3da1b464	0.07895735
62	0x3da8a9a8	0.08235484
63	0x3d750844	0.059822336
64	0xbde9db24	-0.11418751
65	0xbd1d9ad8	-0.03847775
66	0xbc8dfcc8	-0.01733245
67	0x3cbbcb00	0.022923946
68	0x3d1ea074	0.03872724
69	0x3df1fb46	0.11815505
70	0x3dec7e48	0.11547524
71	0x3d81e712	0.06342901
72	0xbda7d362	-0.08194615
73	0xbc73af50	-0.014873341
74	0x3d4f18cc	0.050560758
75	0x3b659b40	0.0035035163
76	0xbde65468	-0.11246568
77	0x3d88a178	0.06671423
78	0x3d3116e0	0.043234706
79	0x3de54016	0.11193864
80	0xbdfa064c	-0.12208232
81	0x3df8774c	0.12132129
82	0xbdd6c14e	-0.10486089
83	0xb78ae000	-1.655519e-05
84	0xbd8231ae	-0.06357132
85	0xbdfbed42	-0.12301113
86	0xbd897468	-0.06711656
87	0xbd035594	-0.032064036
88	0xbcbe5ae0	-0.023236692
89	0xbde276e4	-0.11057833
90	0x3d78d61c	0.060751066
91	0xbd4d9780	-0.05019331
92	0xbd91a88a	-0.071122244
93	0xbdec7754	-0.115461975
94	0xbd46cc64	-0.048534766
95	0xbde07c0c	-0.1096116
96	0x3d7b3c04	0.061336532
97	0x3d7ea450	0.06216842
98	0x3c9615a8	0.018320873
99	0x3c836cf0	0.016043156
100	0x3de6a954	0.112627655
101	0x3cd2a4c0	0.025713325
102	0x3deef7b0	0.116683364
103	0xbde1b00a	-0.11019905
104	0xbd84278c	-0.064528555
105	0xbde4ab74	-0.111655146
106	0xbd4334a0	-0.04765761
107	0xbdcbe22e	-0.0995525
108	0xbd4b960c	-0.049703643
109	0x3db149b6	0.08656637
110	0x3dca0f22	0.098661676
111	0xbc4bd8c0	-0.012441814
112	0xbdac6440	-0.08417559
113	0x3d600870	0.054695547
114	0x3d41fbe8	0.047359377
115	0x3d57d2d4	0.052691296
116	0xbdce4f0e	-0.10073672
117	0xbd182b98	-0.03715095
118	0xbd4233fc	-0.047412857
119	0xbd481118	-0.048844427
120	0x3ddba3ec	0.10724625
121	0xbd8d953c	-0.0691323
122	0xbd985c8c	-0.07439527
123	0x3bb3ce20	0.0054872185
124	0xbdee6c4c	-0.1164175
125	0xbd1b7dd8	-0.03796181
126	0x3dde2396	0.10846631
127	0xbd2db990	-0.042413294

fc2.bias f4 [2]
0	0x3d8f1502	0.06986429
1	0xbdda20f6	-0.10650818
